Model: "sequential"
_________________________________________________________________
 Layer (type)                Output Shape              Param #   
=================================================================
 flatten (Flatten)           (None, 3367)              0         
                                                                 
 dense (Dense)               (None, 512)               1724416   
                                                                 
 dense_1 (Dense)             (None, 256)               131328    
                                                                 
 dense_2 (Dense)             (None, 128)               32896     
                                                                 
 dense_3 (Dense)             (None, 10)                1290      
                                                                 
=================================================================
Total params: 1,889,930
Trainable params: 1,889,930
Non-trainable params: 0
_________________________________________________________________
Epoch 1/100
  1/110 [..............................] - ETA: 37s - loss: 72.5451 - accuracy: 0.0625
…
